saved_models/neural_ode_residual64_optimized.pth (torch, 21813 bytes, 6 tensors)

fc1.weight f4 [64, 2]
0.17597003 -0.052553765 -0.15516551 -0.073033415 0.07471898 0.0055332 -0.14542419 -0.064966656
0.23756003 0.32680362 -0.10717898 -0.12379917 0.073159605 0.09458897 -0.1378882 -0.09481895
0.19908637 0.3675029 0.13985339 -0.03708558 0.076610416 0.16619018 -0.11894133 -0.020362055
-0.19433185 -0.12786908 0.08096435 -0.10063126 0.045914177 0.10697534 -0.07125587 0.18444027
-0.13497707 0.085866824 -0.14594498 -0.12145669 0.006899302 0.08175474 -0.41217828 -0.08003914
0.26381224 -0.20464522 -0.061748214 0.16425483 0.15579955 0.053071983 -0.15417443 -0.11635533
0.06111712 0.16895936 -0.10958547 -0.072663374 0.068472184 -0.15841301 0.0575269 0.08810683
0.033359703 0.08400484 -0.12844206 -0.077004276 -0.16219641 0.029309103 -0.13139299 0.082320005
0.10157583 0.15357015 -0.12848945 0.16835883 -0.091455884 -0.068593584 0.045421198 -0.10043055
0.14270167 0.13039175 -0.10579148 0.11045169 0.12120687 0.13583548 -0.0571248 0.1363722
-0.14633045 0.14894494 -0.12175142 -0.031981234 -0.07869189 -0.097248524 -0.09979464 -0.07257404
0.37045297 0.037945885 0.04616325 0.13188052 -0.15890194 0.09020268 -0.1484809 0.15621902
-0.11594167 0.13762899 -0.17726274 -0.12393373 0.071612075 0.11795957 0.15054628 -0.08365755
0.16315813 -0.20175005 0.08846144 0.1976611 0.1491467 -0.17423275 0.14021571 0.09215715
0.22125432 -0.029108942 0.21606314 0.09549488 -0.03698806 0.118689485 0.14174403 0.0041987337
0.32309273 -0.4977309 0.10037554 -0.019404475 0.10893549 -0.095310345 0.3145524 0.20799132
00000000: 7d31 343e 9e42 57bd b5e3 1ebe 8b92 95bd
00000010: 4406 993d d94f b53b 14ea 14be 3d0d 85bd
00000020: f042 733e ce52 a73e a780 dbbd 6b8a fdbd
00000030: b4d4 953d ddb7 c13d 9032 0dbe 7030 c2bd
00000040: 4cdd 4b3e 5729 bc3e ba35 0f3e 0de7 17bd
00000050: ece5 9c3d c22d 2a3e 8397 f3bd 53ce a6bc
00000060: eefe 46be 1df0 02be a3d0 a53d c317 cebd
00000070: 8110 3c3d e315 db3d 99ee 91bd e9dd 3c3e
00000080: 6e37 0abe f2da af3d 9a72 15be 49be f8bd
00000090: 8a13 e23b 076f a73d 0809 d3be 90eb a3bd
000000a0: 6612 873e 848e 51be b2eb 7cbd 6b32 283e
000000b0: eb89 1f3e 0262 593d e7df 1dbe b44b eebd
000000c0: f255 7a3d af03 2d3e 596e e0bd 89d0 94bd
000000d0: 253b 8c3d 0537 22be 54a1 6b3d 5b71 b43d
000000e0: 2fa4 083d bb0a ac3d 5186 03be 6bb4 9dbd
000000f0: d116 26be a519 f03c e28b 06be 6497 a83d
00000100: fd06 d03d 7e41 1d3e bd92 03be 4266 2c3e
00000110: 394d bbbd cb7a 8cbd 940b 3a3d 88ae cdbd
00000120: 6320 123e 6a85 053e 34a9 d8bd 7f34 e23d
00000130: 4f3b f83d 7518 0b3e b2fb 69bd 27a5 0b3e
00000140: a6d7 15be 0685 183e cf58 f9bd c1fe 02bd
00000150: 3729 a1bd 3c2a c7bd 2261 ccbd b3a1 94bd
00000160: 03ac bd3e 256d 1b3d ad15 3d3d b00b 073e
00000170: 31b7 22be 2fbc b83d 610b 18be e1f7 1f3e
00000180: d472 edbd 9dee 0c3e 5d84 35be f8d0 fdbd
00000190: 5aa9 923d c994 f13d ce28 1a3e a654 abbd
000001a0: ed12 273e 9197 4ebe 452b b53d ac67 4a3e
000001b0: eab9 183e 126a 32be b594 0f3e e3bc bc3d
000001c0: 7e90 623e e075 eebc a83f 5d3e d292 c33d
000001d0: cb80 17bd 7913 f33d 5925 113e 8895 893b
000001e0: 696c a53e 96d6 febe b191 cd3d 22f6 9ebc
000001f0: 9219 df3d 1232 c3bd 030d a13e adfb 543e

fc1.bias f4 [64]
-0.014079846 0.014116924 -0.017634189 -0.023321804 -0.00074602716 -0.005929423 0.025648076 0.012208617
0.016712124 0.013684493 0.00057993457 0.018404664 0.0043032104 -0.039951924 -0.030453857 -0.029088112
-0.008470274 -0.020477891 0.042497028 0.0019193565 -0.0001009289 -0.0058177765 0.02521646 -0.0021080312
-0.049251374 0.07553212 0.06191573 -0.022959337 0.0069399276 -0.03999568 0.015432204 -0.019968485
-0.04863677 -0.03833055 -0.035531744 0.005801813 0.0050553917 -0.022354318 -0.020994302 -0.016297225
-0.03592521 -0.05975838 0.018210173 0.041736778 -0.03762271 -0.066680096 -0.014293229 -0.039231934
-0.044698413 -0.0059523867 -0.0017958288 0.0143357245 0.0018477759 0.015502263 0.006518277 0.008511031
0.006096354 0.0032148883 -0.015735133 0.012956691 0.028688364 -0.02445484 0.04000242 0.023261182
00000000: 28af 66bc ac4a 673c 9375 90bc 5e0d bfbc
00000010: 0991 43ba 9b4b c2bb ea1b d23c a706 483c
00000020: dde7 883c ec34 603c c006 183a 61c5 963c
00000030: f201 8d3b a1a4 23bd 5e7a f9bc 314a eebc
00000040: e7c6 0abc 40c1 a7bc 5d11 2e3d eb92 fb3a
00000050: caa9 d3b8 0ca3 bebb c092 ce3c e526 0abb
00000060: cfbb 49bd 96b0 9a3d 599b 7d3d 3815 bcbc
00000070: 5568 e33b 83d2 23bd 5bd7 7c3c f394 a3bc
00000080: 5a37 47bd 7f00 1dbd bc89 11bd 231d be3b
00000090: b3a7 a53b 6720 b7bc 3efc abbc c281 85bc
000000a0: 5026 13bd 34c5 74bd 802d 953c 2ff4 2a3d
000000b0: 451a 1abd 938f 88bd 262e 6abc aab1 20bd
000000c0: af15 37bd 3d0c c3bb 0462 ebba 63e0 6a3c
000000d0: 1231 f23a 34fd 7d3c 4597 d53b da71 0b3c
000000e0: edc3 c73b e0b0 523b f7e6 80bc 4d48 543c
000000f0: dc03 eb3c 8455 c8bc 94d9 233d 3c8e be3c

fc2.weight f4 [64, 64]
0.13016856 0.018407784 -0.024888668 -0.05018948 -0.104251586 -0.04787952 0.003952204 0.0053416896
-0.033487037 0.018324384 -0.046199877 0.0977402 0.11546686 0.05363696 -0.07449331 0.04219035
-0.17250519 0.10357753 0.12239583 0.17997544 -0.13133404 -0.06385099 -0.14885563 0.053439938
-0.083277665 0.05062794 0.10582444 0.08101513 -0.09049565 0.035488553 0.1345497 0.10657299
-0.009826355 0.12012953 -0.05328815 0.18812117 0.05397773 -0.24187088 0.11093476 -0.06723322
-0.1127828 -0.05030928 0.070903115 -0.20783837 0.15041067 -0.1588368 -0.035761274 -0.15179959
-0.2132539 -0.05278673 0.19249251 -0.058926728 -0.098746695 0.1730742 0.1272038 -0.045468166
-0.055077586 0.050742354 0.049253825 0.24277431 0.050600067 -0.09340386 0.11046554 0.15283725
0.14377442 -0.16578108 -0.201238 0.2653948 -0.10472229 -0.10057887 -0.28977698 -0.03147372
-0.18269831 0.09367397 0.12232638 -0.027720114 -0.18595557 0.014574115 0.041389138 -0.13919574
0.02144282 -0.13302876 -0.1529714 0.09697736 0.18851884 0.21901113 0.0020514417 -0.0874029
0.06843899 0.10274326 -0.05986859 -0.20211637 0.08578351 0.17243214 0.067179404 0.2555338
-0.007165597 0.12649906 -0.042185903 0.06734615 0.1293334 0.15774733 0.14335278 0.0021037473
0.1392551 0.14896503 0.04486234 0.06949517 -0.14975461 0.14406528 -0.11222517 0.19217935
-0.008356535 0.014216569 -0.10118853 0.06379455 0.016731812 0.08844847 0.034693304 -0.13912682
0.026692564 0.15605581 0.03232712 -0.21320476 0.0029795673 -0.12714736 -0.14484648 0.07110023
0.13274515 0.11621946 0.16161475 0.0014075086 0.09236549 -0.1269211 0.047637332 0.14098102
0.009119211 0.22707093 -0.032881532 0.098984726 0.16366337 -0.13045378 -0.18318814 0.13995388
0.13149765 -0.16058052 -0.093283944 0.16074501 -0.10011868 -0.06845956 -0.048641525 -0.119046256
0.11988076 0.16774747 0.17706114 -0.10829311 -0.17900577 -0.132214 0.02026704 -0.24200207
-0.04989457 -0.18261683 -0.088734366 0.2302568 -0.07056781 -0.26274705 0.08672853 -0.10858425
0.11370211 -0.11743061 0.24185671 0.14841296 -0.04101047 0.093263835 0.14001207 -0.010681489
-0.053700875 0.08723601 -0.1711804 0.011382404 0.20802219 -0.064588495 -0.06378154 0.17405595
0.08531498 -0.11003105 -0.08553278 -0.10401546 -0.22653523 -0.057331912 -0.14794332 0.116887726
0.10658869 0.16569677 -0.024492979 -0.055659633 -0.1644489 -0.0152312815 0.009225227 -0.021647098
-0.09071914 0.1170244 -0.02556084 -0.13056551 -0.17590564 -0.12302359 0.1275606 -0.14218862
0.1401053 -0.11296776 -0.0850481 0.09746983 -0.06586633 0.16277002 -0.2330797 -0.13169955
-0.12385074 0.22028507 -0.18339145 -0.2755884 -0.06160894 0.16971289 0.19995902 0.1159655
-0.21036682 -0.12567157 0.12889956 0.008263397 0.015015441 -0.05983745 0.09822404 0.12284854
0.120813996 -0.117122516 -0.00464408 0.10179081 -0.014753324 -0.015504197 -0.09299531 -0.16949548
-0.0076454617 -0.048453234 -0.02531833 -0.081634745 -0.04803721 -0.0085701095 -0.015561908 -0.12179436
0.1432824 -0.025601992 -0.14415987 -0.16213937 0.048768375 -0.11697267 0.19164197 0.20952184
00000000: e84a 053e eccb 963c 52e3 cbbc 7c93 4dbd
00000010: db81 d5bd 511d 44bd 7d81 813b 5709 af3b
00000020: b429 09bd 051d 963c 153c 3dbd 042c c83d
00000030: e479 ec3d 6eb2 5b3d f38f 98bd cacf 2c3d
00000040: 33a5 30be 7520 d43d aaaa fa3d 7b4b 383e
00000050: 6e7c 06be 4fc4 82bd 9c6d 18be d6e3 5a3d
00000060: 7b8d aabd 3e5f 4f3d 7cba d83d 43eb a53d
00000070: c955 b9bd 725c 113d 66c7 093e f142 da3d
00000080: b8fe 20bc 7906 f63d ad44 5abd d6a2 403e
00000090: c117 5d3d 00ad 77be c331 e33d 92b1 89bd
000000a0: abfa e6bd 1b11 4ebd a735 913d 95d3 54be
000000b0: 4105 1a3e 1da6 22be 6a7a 12bd 5a71 1bbe
000000c0: 3b5f 5abe e636 58bd c21c 453e 275d 71bd
000000d0: b53b cabd 5d3a 313e b741 023e d43c 3abd
000000e0: 0999 61bd 37d7 4f3d 61be 493d d499 783e
000000f0: 0442 4f3d 864a bfbd c23b e23d 5e81 1c3e
00000100: 9a39 133e 84c2 29be 5611 4ebe d4e1 873e
00000110: a478 d6bd 4bfc cdbd a65d 94be 96ea 00bd
00000120: 4415 3bbe 23d8 bf3d 4186 fa3d 4b15 e3bc
00000130: 236b 3ebe 45c8 6e3c a887 293d 5489 0ebe
00000140: daa8 af3c b138 08be 89a4 1cbe 119c c63d
00000150: 150b 413e 7444 603e 7b71 063b 4b00 b3bd
00000160: be29 8c3d 0f6b d23d c438 75bd 98f7 4ebe
00000170: 44af af3d 0d92 303e 5b95 893d 54d5 823e
00000180: 62cd eabb f888 013e 20cb 2cbd c7ec 893d
00000190: fa6f 043e 8488 213e 12cb 123e 06df 093b
000001a0: e498 0e3e 4a8a 183e 93c1 373d 7c53 8e3d
000001b0: 4659 19be d985 133e 4fd6 e5bd aaca 443e
000001c0: d9e9 08bc 9dec 683c ef3b cfbd b8a6 823d
000001d0: 2711 893c 7924 b53d 911a 0e3d 4377 0ebe
000001e0: 5daa da3c 18cd 1f3e 7169 043d 5952 5abe
000001f0: d844 433b eb32 02be a352 14be ff9c 913d
00000200: 58ee 073e 7804 ee3d 567e 253e 277c b83a
00000210: 1e2a bd3d 9bf7 01be 5d1f 433d 545d 103e
00000220: be68 153c 4885 683e c9ae 06bd 81b8 ca3d
00000230: 5f97 273e ad95 05be ac95 3bbe 1250 0f3e
00000240: 52a7 063e 386f 24be a70b bfbd 579a 243e
00000250: 060b cdbd 8734 8cbd 563c 47bd 86ce f3bd
00000260: 0b84 f53d fec5 2b3e 844f 353e c7c8 ddbd
00000270: 4a4d 37be 1b63 07be 1007 a63c 64cf 77be
00000280: 405e 4cbd e8ff 3abe 5dba b5bd 70c8 6b3e
00000290: db85 90bd c886 86be ba9e b13d 6b61 debd
000002a0: a7dc e83d 767f f0bd 49a9 773e 91f9 173e
000002b0: 98fa 27bd 1c01 bf3d 535f 0f3e 6901 2fbc
000002c0: 73f5 5bbd cba8 b23d ea49 2fbe 437d 3a3c
000002d0: c503 553e f946 84bd e59f 82bd b93b 323e
000002e0: 9fb9 ae3d f657 e1bd cf2b afbd 0f06 d5bd
000002f0: daf8 67be ded4 6abd 747e 17be d562 ef3d
00000300: 2c4b da3d 6aac 293e 80a5 c8bc 5bfb 63bd
00000310: 4b65 28be a08c 79bc 6825 173c 4155 b1bc
00000320: f5ca b9bd 7daa ef3d f764 d1bc f7b2 05be
00000330: 9c20 34be cbf3 fbbd 3f9f 023e e599 11be
00000340: c477 0f3e a45b e7bd b32d aebd 439e c73d
00000350: ede4 86bd 2fad 263e 72ac 6ebe 3fdc 06be
00000360: 75a5 fdbd 6992 613e f8ca 3bbe ec19 8dbe
00000370: a859 7cbd 37c9 2d3e 0fc2 4c3e 527f ed3d
00000380: 666a 57be 0cb0 00be 3ffe 033e 3363 073c
00000390: 5303 763c 1d18 75bd af29 c93d 0498 fb3d
000003a0: 546d f73d eedd efbd 5e2d 98bb b377 d03d
000003b0: edb7 71bc 5105 7ebc 5374 bebd 3990 2dbe
000003c0: c886 fabb e676 46bd 6368 cfbc 1e30 a7bd
000003d0: aac2 44bd a569 0cbc 5ff7 7ebc 526f f9bd
000003e0: 9fb8 123e 45bb d1bc a59e 13be dd07 26be
000003f0: 59c1 473d 5e8f efbd cb3d 443e e58c 563e

fc2.bias f4 [64]
0.006047355 -0.0005041136 -0.023715938 -0.0065665375 -0.029836351 -0.015594735 0.014491717 0.01463273
-0.00059578253 -0.00044848886 0.033731256 0.014472056 0.0071935286 -0.024361305 0.00025302096 0.033120614
0.0010937249 -0.010567565 0.0056831706 0.0011234592 0.010744654 0.0182593 0.007050569 0.009388626
0.002442816 0.041613467 -0.0010069112 -0.03734872 -0.0031889158 -0.036101263 -0.0042106626 0.0051315697
-0.0143324565 0.019026833 -0.019391362 -0.020183805 0.01700099 0.022064133 -0.0026409153 0.022635067
0.016443746 -0.019784387 0.025865149 0.0060647624 -0.007715838 0.025430145 0.014643918 0.02341788
-0.004573028 -0.015914336 0.009743089 -0.015457904 0.03365481 0.004299692 -0.021149047 0.0021215812
-0.045112863 -0.01518583 0.014820243 -0.0031272275 0.01413317 -0.02097403 0.0017598469 0.0042886087
00000000: e428 c63b 7e26 04ba ed47 c2bc 1c2c d7bb
00000010: 5d6b f4bc 0f81 7fbc ab6e 6d3c 1ebe 6f3c
00000020: 4a2e 1cba 2823 ebb9 c929 0a3d 341c 6d3c
00000030: b1b7 eb3b 5c91 c7bc e6a7 8439 7ba9 073d
00000040: 515b 8f3a 9523 2dbc e439 ba3b 0941 933a
00000050: 580a 303c 8794 953c 7608 e73b c0d2 193c
00000060: a717 203b e272 2a3d 55fa 83ba f9fa 18bd
00000070: 21fd 50bb ebde 13bd 99f9 89bb ba26 a83b
00000080: aed2 6abc 29de 9b3c a2da 9ebc 8258 a5bc
00000090: a945 8b3c d7bf b43c 3513 2dbb 2d6d b93c
000000a0: 09b5 863c de12 a2bc 26e3 d33c eaba c63b
000000b0: 24d5 fcbb e152 d03c 0bed 6f3c dbd6 bf3c
000000c0: 57d9 95bb c85e 82bc 7aa1 1f3c 2643 7dbc
000000d0: a0d9 093d 6ee4 8c3b c440 adbc 3a0a 0b3b
000000e0: 44c8 38bd fdcd 78bc 9bd0 723c 2cf2 4cbb
000000f0: d08e 673c bbd1 abbc aaaa e63a 7587 8c3b

fc3.weight f4 [2, 64]
0.18439691 -0.12742889 0.36928818 0.26600596 0.20548125 0.31960553 -0.24154462 -0.095970824
0.08222831 -0.25575572 -0.42467833 -0.2858761 0.081568345 0.43074012 0.021302124 -0.39356133
0.035459094 0.31113774 -0.40541828 0.09858766 -0.30412972 -0.2746042 -0.09491932 -0.015951632
-0.25167802 -0.1014722 0.18847775 0.22236903 0.03715681 0.2753368 -0.13994397 -0.00029595048
0.004335209 -0.39554292 0.089170516 0.2068449 -0.36266443 -0.08011651 -0.32655615 -0.027178822
-0.3919992 0.26280615 -0.03340806 -0.23616786 0.18045123 -0.21849866 -0.3086705 -0.38845682
0.11255495 0.2646861 -0.3459064 0.30436265 -0.050774377 0.21171658 0.15159096 -0.27831113
0.23040853 0.062323242 -0.18077922 0.14815316 0.02035295 0.20686266 0.22786713 -0.23681338
0.2561584 -0.41384915 0.11295374 -0.3435483 0.00092401693 0.053266197 -0.1454417 -0.35284328
-0.2500934 0.28110984 -0.19068974 -0.23599759 -0.26423573 -0.07199362 0.23789135 0.15891634
-0.3454337 -0.17503616 0.24351256 0.20358959 -0.13823502 -0.12811944 0.30862767 -0.23194833
0.18494464 -0.24434792 -0.25399742 0.03030542 -0.21282254 0.073132336 0.077112414 -0.24522378
0.22498752 0.013733149 0.08275726 -0.12386554 0.11414718 -0.19532192 0.2821238 -0.1691678
-0.31135333 0.08341096 -0.120317504 -0.45271626 0.31875512 0.29830688 -0.35630053 -0.036253415
-0.11782429 -0.19178355 0.21010421 0.27178895 0.23627198 -0.29544804 0.29670492 0.3422304
0.347679 0.3350072 0.06664851 0.16681668 -0.13877933 0.047087062 -0.22801061 -0.19067024
00000000: 8bd2 3c3e b87c 02be 5713 bd3e ef31 883e
00000010: ad69 523e 56a3 a33e 7957 77be 5a8c c4bd
00000020: 5167 a83d 6af2 82be 706f d9be 5a5e 92be
00000030: 4e0d a73d f889 dc3e cb81 ae3c df80 c9be
00000040: 8e3d 113d 724d 9f3e fc92 cfbe 54e8 c93d
00000050: e4b6 9bbe ec98 8cbe 0f65 c2bd ffac 82bc
00000060: f1db 80be a8d0 cfbd 5000 413e b5b4 633e
00000070: bd31 183d f2f8 8c3e 794d 0fbe cd29 9bb9
00000080: 5e0e 8e3b 9a84 cabe 089f b63d 26cf 533e
00000090: 27af b9be 2014 a4bd 5e32 a7be 1fa6 debc
000000a0: 1fb4 c8be 878e 863e e4d6 08bd fdd5 71be
000000b0: 35c8 383e 1dbe 5fbe 0f0a 9ebe d0e3 c6be
000000c0: 3683 e63d f084 873e a51a b1be 6cd5 9b3e
000000d0: cbf8 4fbd 3bcc 583e a93a 1b3e cc7e 8ebe
000000e0: 37f0 6b3e a846 7f3d 301e 39be 76b5 173e
000000f0: 3bbb a63c ced3 533e 0056 693e 357f 72be
00000100: 3227 833e 09e4 d3be 4a54 e73d 90e5 afbe
00000110: ba39 723a a82d 5a3d abee 14be e0a7 b4be
00000120: 3e0c 80be a1ed 8f3e 2c44 43be 5aa9 71be
00000130: e849 87be 6471 93bd ca99 733e f7ba 223e
00000140: b0dc b0be ae3c 33be 5b5b 793e ca79 503e
00000150: 7b8d 0dbe be31 03be 7204 9e3e dd83 6dbe
00000160: 2162 3d3e 5736 7abe f30b 82be 1243 f83c
00000170: 27ee 59be 68c6 953d 1ded 9d3d f11b 7bbe
00000180: 2163 663e 0001 613c a37c a93d 37ad fdbd
00000190: ffc5 e93d 7802 48be 8872 903e 533a 2dbe
000001a0: b469 9fbe 5ed3 aa3d 0669 f6bd 6dca e7be
000001b0: df33 a33e aebb 983e 066d b6be 767e 14bd
000001c0: dd4d f1bd e862 44be 8f25 573e ec27 8b3e
000001d0: 48f1 713e f744 97be b5e9 973e d338 af3e
000001e0: fb02 b23e 1086 ab3e 047f 883d fed1 2a3e
000001f0: 2b1c 0ebe 5dde 403d 9d7b 69be 0f3f 43be

fc3.bias f4 [2]
-0.052769978 -0.03194793
00000000: 5525 58bd d5db 02bd
