saved_models/neural_ode_residual64_optimized.pth (torch, 21813 bytes, 6 tensors)

fc1.weight f4 [64, 2]
0.089348085 -0.17374417 0.15226391 0.14900921 0.08520738 0.10938832 0.115579635 -0.12084234
-0.14930198 0.15249735 0.076264665 0.14854981 0.09548801 -0.013037646 -0.08634236 0.09462767
0.12089307 -0.104048796 -0.15154974 -0.07898736 0.24300958 0.20661254 -0.13676335 0.050659146
-0.09169538 0.045915417 0.025848182 0.11933942 0.094729014 0.076167844 0.16349845 -0.061455533
0.064729996 0.1308653 -0.09619622 0.059065115 0.056498345 0.32637158 0.07499169 -0.059756108
-0.12443011 -0.1554624 0.09107803 -0.008145241 0.14270884 -0.07878447 -0.16222468 0.1803539
-0.094451964 -0.14617668 -0.09650197 0.113496445 -0.16259713 0.035732757 -0.074972056 -0.30657002
-0.15630247 0.034424353 -0.075722456 -0.13805638 -0.07815628 -0.06071393 -0.055037502 -0.15865119
0.34445485 0.31894323 0.39062673 -0.026600718 -0.082858495 -0.15141787 -0.10927844 0.14004448
0.20454066 -0.18297943 0.08383422 0.03199462 -0.10770407 -0.124587856 -0.15030895 -0.14949098
-0.001055289 0.10803108 0.14862126 0.026581192 -0.17637014 -0.17164034 0.101422206 -0.10469231
0.13187201 -0.009993113 -0.1606578 -0.32837394 -0.0026679833 -0.16900519 -0.14817703 0.0548046
0.04821955 -0.10967942 -0.3044765 -0.31350482 0.12555951 -0.076645836 0.06204568 0.22664024
0.26636183 0.09824491 0.0021187912 -0.13744618 -0.09675318 -0.17766461 0.19171223 0.0331581
-0.072804675 -0.17093901 -0.110552736 0.025855314 0.16680625 0.065637805 0.1275931 -0.006548515
-0.18635109 -0.38454577 0.057652004 -0.103848085 -0.10772799 -0.056355607 0.042561047 0.1889724
00000000: 21fc b63d fee9 31be 12eb 1b3e df95 183e
00000010: 3581 ae3d fc06 e03d 04b5 ec3d 307c f7bd
00000020: 9ee2 18be 4428 1c3e a630 9c3d 711d 183e
00000030: 388f c33d da9b 55bc 43d4 b0bd 27cc c13d
00000040: c996 f73d 8917 d5bd db2f 1bbe 20c4 a1bd
00000050: 81d7 783e 3d92 533e b10b 0cbe f77f 4f3d
00000060: caca bbbd ce11 3c3d 91bf d33c 3a68 f43d
00000070: 4901 c23d e3fd 9b3d 236c 273e ccb8 7bbd
00000080: 2991 843d 8e01 063e 8602 c5bd 43ee 713d
00000090: cf6a 673d 2d1a a73e 3e95 993d d2c2 74bd
000000a0: 37d5 febd 8931 1fbe 1e87 ba3d 9e73 05bc
000000b0: 4422 123e c159 a1bd 3a1e 26be b1ae 383e
000000c0: 0870 c1bd 57af 15be d3a2 c5bd d370 e83d
000000d0: dd7f 26be 835c 123d f38a 99bd bff6 9cbe
000000e0: c10d 20be 8d00 0d3d 6014 9bbd a75e 0dbe
000000f0: 6610 a0bd 2baf 78bd 016f 61bd 7575 22be
00000100: 635c b03e 874c a33e 3a00 c83e c0e9 d9bc
00000110: b7b1 a9bd 490d 1bbe 60cd dfbd d267 0f3e
00000120: 1b73 513e f65e 3bbe 47b1 ab3d ca0c 033d
00000130: f493 dcbd eb27 ffbd 97ea 19be 2a14 19be
00000140: 9f51 8aba 663f dd3d 2c30 183e cdc0 d93c
00000150: 609a 34be 7cc2 2fbe 72b6 cf3d ec68 d6bd
00000160: 7509 073e 27ba 23bc 7a83 24be a120 a8be
00000170: 55d9 2ebb b20f 2dbe b8bb 17be ca7a 603d
00000180: dd81 453d 9b9f e0bd 58e4 9bbe b483 a0be
00000190: ac92 003e 7ef8 9cbd 9c23 7e3d 6114 683e
000001a0: 9460 883e a134 c93d 6bdb 0a3b b1be 0cbe
000001b0: 8826 c6bd b6ed 35be 3650 443e cad0 073d
000001c0: 9e1a 95bd a30a 2fbe 7969 e2bd 86ce d33c
000001d0: 42cf 2a3e 1d6d 863d c4a7 023e ed94 d6bb
000001e0: d2d2 3ebe 2fe3 c4be 8224 6c3d 4eae d4bd
000001f0: 7ea0 dcbd 23d5 66bd 7e54 2e3d fb81 413e

fc1.bias f4 [64]
0.0074988934 -0.015676102 0.019091357 0.016217131 -0.031492297 -0.05486731 -0.029555367 -0.005398838
0.009782283 -0.035306588 -0.00851212 -0.02991792 0.0130787855 -0.0048744623 0.022891248 -0.02325505
-0.021654783 -0.010373523 -0.025115833 -0.006560879 0.02605607 0.04685312 0.041931823 -0.025107997
0.016886804 0.012669513 -0.054277916 0.01538738 -0.00020398854 0.018317202 0.0049063833 0.022837127
0.0073501687 0.009202317 0.0058929366 -0.049777523 0.027264658 0.03886157 -0.003934147 0.01667949
-0.027650747 -0.018436985 0.02580305 0.020665035 0.03370787 0.0057216934 -0.0017361896 -0.03932499
-0.014463454 -0.0092644505 0.030326534 0.015451858 0.0018877534 0.01925687 0.01288725 0.043042336
0.028367983 0.029743198 0.029727353 0.009657069 -0.009216478 0.019525636 0.02470194 -0.076084055
00000000: 47b9 f53b 2b6b 80bc 7a65 9c3c cad9 843c
00000010: 11fe 00bd 8bbc 60bd 191e f2bc bce8 b0bb
00000020: de45 203c a49d 10bd 6b76 0bbc 6d16 f5bc
00000030: 6748 563c f4b9 9fbb 6d86 bb3c 6081 bebc
00000040: 5f65 b1bc b6f5 29bc b8bf cdbc a4fc d6bb
00000050: 8a73 d53c 0fe9 3f3d b4c0 2b3d 49af cdbc
00000060: 3256 8a3c ca93 4f3c 8552 5ebd 591b 7c3c
00000070: c2e5 55b9 f50d 963c bac5 a03b ed14 bb3c
00000080: afd9 f03b 51c5 163c 8919 c13b 84e3 4bbd
00000090: 225a df3c 4f2d 1f3d 04ea 80bb 6da3 883c
000000a0: d283 e2bc 2909 97bc eb60 d33c b849 a93c
000000b0: 4311 0a3d 0b7d bb3b db90 e3ba 3e13 21bd
000000c0: 1ff8 6cbc ecc9 17bc 5a6f f83c ca29 7d3c
000000d0: 7e6e f73a 95c0 9d3c 0b25 533c 294d 303d
000000e0: f963 e83c 02a8 f33c c786 f33c af38 1e3c
000000f0: b600 17bc 3af4 9f3c b95b ca3c f5d1 9bbd

fc2.weight f4 [64, 64]
-0.08050739 0.099719346 -0.1584053 0.02669128 -0.08728336 0.011085327 0.12873101 -0.10658992
0.0029327522 0.007156281 0.16728032 -0.17941168 -0.08622838 -0.1875036 0.1445891 -0.046102963
0.13289192 -0.10767061 0.2124421 -0.039780814 0.0741247 0.2052057 0.031479172 -0.022253547
-0.20161946 -0.124412775 0.027857672 -0.19529295 0.20610635 -0.07054106 0.1375556 0.20881975
-0.04513751 -0.09322152 -0.027681451 -0.1986393 0.056934647 -0.09336351 0.15332118 -0.06809702
-0.17674956 0.18244079 0.23862576 -0.068406396 0.15176103 -0.15716812 0.09214802 -0.20533653
-0.16153812 -0.11551042 0.19807854 -0.101374134 -0.22655278 0.17023872 -0.04490021 -0.14799483
-0.0020287435 -0.097871386 -0.18365325 0.073412515 0.092839696 0.06131665 0.17496917 -0.013405907
-0.11480501 0.05369043 -0.07388747 -0.048696753 -0.0992764 -0.08869822 0.0025372538 0.142039
0.21293086 -0.20360482 0.12620014 -0.064524144 0.03219249 0.08205116 0.14832787 -0.024762759
0.15745099 0.053512186 -0.046793055 0.1377173 -0.14723434 -0.06835264 -0.011702851 0.1071901
-0.10448075 -0.089188546 0.07073126 -0.14469019 0.066972904 -0.13197269 -0.18716998 -0.073421784
0.01569142 0.087245956 0.13868096 -0.014390902 -0.03595899 -0.12548923 -0.13976873 -0.1275515
0.21742567 0.09988879 -0.14703438 -0.18054476 0.07293711 0.19629645 0.13296393 -0.12308851
-0.025417544 0.17305058 -0.049309097 -0.2180307 0.13673314 0.20184249 -0.123898976 -0.017939292
0.014665915 -0.080585346 0.002430539 -0.17697242 0.09029786 0.1220635 0.053907964 0.037222594
-0.21007478 -0.046372123 -0.15419628 -0.08082396 -0.0015196519 -0.09844777 -0.16640852 -0.037305508
0.113740146 0.030575775 -0.121512905 -0.026804406 0.27633348 0.1859085 0.078871034 0.10031831
0.06838015 0.13016777 -0.17324828 -0.1320918 -0.0475126 0.10196103 -0.053183187 -0.04249505
-0.08663345 -0.14667104 0.053658254 0.12890704 0.23615076 -0.14962684 -0.093581855 -0.13220927
0.16612025 0.105311275 0.12887298 0.055488955 0.015258653 0.10085245 0.014375557 -0.09215879
-0.13511269 0.1721908 0.022317046 -0.11510028 -0.04527195 -0.04641095 -0.11633418 0.07698371
-0.058800127 0.17765401 0.120094314 0.04173032 -0.1329702 -0.16914785 0.16857688 -0.048548408
-0.23785947 -0.10987252 -0.19753592 0.012858439 0.12790403 -0.15675746 -0.08213579 0.21209736
0.122322425 0.17615986 -0.24352328 0.10509665 0.22258613 0.079988524 0.09136023 -0.101713665
-0.15630102 0.095151044 0.09924841 0.12113006 -0.22604747 0.0029455337 0.115371905 0.053621378
-0.20850842 -0.21461199 0.1338242 -0.033627294 -0.093101636 -0.18762518 -0.14929484 0.14677787
0.055028196 0.0332647 0.17992818 0.14029856 0.20935969 -0.03864816 -0.060265392 0.05587942
-0.084936924 0.18797514 0.21904211 -0.08435362 -0.02371573 0.032726943 0.06329335 0.08816793
-0.14803982 0.1076447 -0.09252379 0.21306142 -0.13784729 0.16493542 0.021646993 -0.08090764
0.042971857 -0.031826675 0.2038096 0.09410707 -0.005260658 -0.12910105 0.20686156 -0.08575019
0.1801026 0.21199434 0.082399346 0.031371612 -0.02207687 0.044375762 0.12934129 -0.09809662
00000000: 0fe1 a4bd a839 cc3d 0035 22be aca7 da3c
00000010: 9ec1 b2bd 3b9f 353c 10d2 033e d14b dabd
00000020: 6b33 403b 3c7f ea3b 884b 2b3e b2b7 37be
00000030: 8198 b0bd f200 40be 2a0f 143e 76d6 3cbd
00000040: d214 083e 6982 dcbd 6c8a 593e 35f1 22bd
00000050: b1ce 973d 7121 523e 4ef0 003d 124d b6bc
00000060: 5575 4ebe 20cc febd c635 e43c e0fa 47be
00000070: 8b0d 533e d577 90bd 60db 0c3e d8d4 553e
00000080: 1ce2 38bd edea bebd 36c4 e2bc 1a68 4bbe
00000090: 4e34 693d 5e35 bfbd 3a00 1d3e 7376 8bbd
000000a0: d6fd 34be c2d1 3a3e 505a 743e a718 8cbd
000000b0: 3e67 1b3e aef0 20be 1ab8 bc3d bd43 52be
000000c0: 406a 25be ba90 ecbd 1ad5 4a3e 3e9d cfbd
000000d0: 74fd 67be 0f53 2e3e 48e9 37bd f58b 17be
000000e0: abf4 04bb cb70 c8bd 990f 3cbe 4d59 963d
000000f0: bd22 be3d 2b27 7b3d 1e2b 333e 73a4 5bbc
00000100: e41e ebbd 7fea 5b3d 5052 97bd 3f76 47bd
00000110: 6d51 cbbd 6aa7 b5bd 0e48 263b ac72 113e
00000120: 8c0a 5a3e c87d 50be 9c3a 013e 3c25 84bd
00000130: 46dc 033d 700a a83d 43e3 173e 45db cabc
00000140: d53a 213e 982f 5b3d 13aa 3fbd c405 0d3e
00000150: 99c4 16be 78fc 8bbd 51bd 3fbc 7c86 db3d
00000160: 01fa d5bd 7ca8 b6bd 8ddb 903d aa29 14be
00000170: 1729 893d d923 07be 7da9 3fbe 295e 96bd
00000180: 4b8b 803c 02ae b23d 6202 0e3e d1c7 6bbc
00000190: bc49 13bd 4080 00be 891f 0fbe dc9c 02be
000001a0: d6a4 5e3e 7e92 cc3d 2e90 16be bae0 38be
000001b0: 0d60 953d f001 493e b227 083e d415 fcbd
000001c0: 7438 d0bc 2c34 313e 56f8 49bd 7143 5fbe
000001d0: c603 0c3e ccaf 4e3e bfbe fdbd 6cf5 92bc
000001e0: 4e49 703c ee09 a5bd ae49 1f3b 4238 35be
000001f0: 16ee b83d 6efc f93d 99ce 5c3d b876 183d
00000200: d81d 57be b2f0 3dbd a1e5 1dbe 0887 a5bd
00000210: 0e2f c7ba fc9e c9bd ff66 2abe a9cd 18bd
00000220: 98f0 e83d 0c7a fa3c c2db f8bd ea94 dbbc
00000230: 957b 8d3e cc5e 3e3e 2387 a13d b073 cd3d
00000240: e40a 8c3d b34a 053e ff67 31be 1343 07be
00000250: 929c 42bd f2d0 d03d 9dd6 59bd 4a0f 2ebd
00000260: e16c b1bd ef30 16be c2c8 5b3d 3500 043e
00000270: 81d1 713e c737 19be d8a7 bfbd de61 07be
00000280: 6d1b 2a3e 70ad d73d 47f7 033e 6348 633d
00000290: 6eff 793c bb8b ce3d 7587 6b3c bfbd bcbd
000002a0: fb5a 0abe c952 303e 3dd2 b63c b2b9 ebbd
000002b0: 156f 39bd 6919 3ebd 9d40 eebd a3a9 9d3d
000002c0: 67d8 70bd efea 353e 02f4 f53d 69ed 2a3d
000002d0: 5729 08be 1835 2dbe 6b9f 2c3e b2da 46bd
000002e0: 6f91 73be d804 e1bd db46 4abe 34ac 523c
000002f0: 46f9 023e 0785 20be cf36 a8bd 0d30 593e
00000300: 2e84 fa3d 4063 343e 2b5e 79be ea3c d73d
00000310: 9eed 633e 06d1 a33d 131b bb3d 414f d0bd
00000320: 600d 20be 8dde c23d c042 cb3d 0913 f83d
00000330: fd78 67be db09 413b 1b48 ec3d 17a2 5b3d
00000340: 3b83 55be 3fc3 5bbe 3609 093e c6bc 09bd
00000350: 12ac bebd d120 40be bfe0 18be f04c 163e
00000360: 3f65 613d 9140 083d 183f 383e 6daa 0f3e
00000370: 6362 563e 884d 1ebd d8d8 76bd d2e1 643d
00000380: 69f3 adbd 8e7c 403e 934c 603e 97c1 acbd
00000390: 7e47 c2bc b00c 063d f29f 813d 6391 b43d
000003a0: c097 17be d374 dc3d 1d7d bdbd c62c 5a3e
000003b0: d727 0dbe d5e4 283e 0955 b13c e8b2 a5bd
000003c0: 4203 303d b05c 02bd 77b3 503e 35bb c03d
000003d0: 9961 acbb 1133 04be 84d3 533e cc9d afbd
000003e0: d16c 383e 0b15 593e fdc0 a83d 857f 003d
000003f0: 8dda b4bc 5cc3 353d 0b72 043e e1e6 c8bd

fc2.bias f4 [64]
-0.004573526 0.016861586 0.013971741 -0.02203058 -0.002307462 0.003981967 0.0050986917 0.0062299334
-0.018445399 -0.005514713 -0.0024971396 0.003567922 0.02073469 0.021605512 0.009489691 -0.010292824
0.009398799 -0.00084759865 0.0030598475 0.002388192 -0.0017023577 0.014308754 0.010505464 0.0009669074
-0.0229343 0.01925449 -0.0021201826 0.0016690161 0.0285077 -0.007127052 0.0013380441 0.01220694
-0.005137784 0.0041473988 -0.009498536 0.019641621 0.02544486 0.01561373 0.0012475139 -0.0009716321
-0.008971516 -0.01710796 0.02797776 -0.025224697 -0.020305043 0.005093014 -0.0067072385 -0.00071952725
-0.023518516 0.0016571038 -0.027950386 0.018538052 0.0013986487 -0.02596258 -0.004942408 0.01055708
-0.00903541 0.014752055 0.0033749852 -0.013485226 -0.012143955 -0.030399896 -0.0032949978 -0.00088482845
00000000: 84dd 95bb 4f21 8a3c bbe9 643c 7a79 b4bc
00000010: ca38 17bb 297b 823b ed12 a73b 7824 cc3b
00000020: ce1a 97bc c4b4 b4bb 0da7 23bb ccd3 693b
00000030: ccdb a93c 0bfe b03c a67a 1b3c 3ca3 28bc
00000040: 6cfd 193c 6231 5eba b987 483b 3783 1c3b
00000050: a521 dfba 446f 6a3c 1c1f 2c3c 0f78 7d3a
00000060: b7e0 bbbc 98bb 9d3c c3f2 0abb e3c2 da3a
00000070: fb88 e93c 0c8a e9bb 4f61 af3a 9eff 473c
00000080: db5a a8bb e7e6 873b bf9f 1bbc 77e7 a03c
00000090: bd71 d03c bbd0 7f3c 9f83 a33a 20b5 7eba
000000a0: 44fd 12bc fe25 8cbc 9e31 e53c 06a4 cebc
000000b0: c356 a6bc 4ce3 a63b 65c8 dbbb a89e 3cba
000000c0: e7a9 c0bc 2d33 d93a 35f8 e4bc 1ddd 973c
000000d0: dd52 b73a 7aaf d4bc ecf3 a1bb 9af7 2c3c
000000e0: 4209 14bc 9ab2 713c db2e 5d3b 23f1 5cbc
000000f0: 70f7 46bc 3409 f9bc e4f0 57bb d5f3 67ba

fc3.weight f4 [2, 64]
0.24270092 -0.32170832 -0.20600341 0.3971094 -0.1410699 -0.20777902 0.117510706 -0.09353456
0.3911637 0.34730664 -0.049244918 0.022120073 -0.249393 -0.22348155 -0.28951293 0.33458024
-0.39768904 0.04363148 0.1934728 -0.067639 0.29117873 -0.14507324 0.04150967 0.09080067
0.38141546 -0.32861546 0.06718554 -0.069522806 -0.27265483 0.43571013 0.22535323 -0.12928775
-0.1623266 -0.169399 0.2873411 -0.16200143 -0.14024839 -0.3150993 0.022029633 0.30544835
-0.0957524 0.27778536 -0.21224597 0.2897298 0.19797319 0.32516757 0.30564982 0.072635084
0.1644543 -0.0586087 0.21092832 -0.28404915 -0.08332594 0.32011443 0.22605632 -0.24349016
0.32937855 -0.36504614 -0.34681386 0.30213103 -0.09335011 0.18400043 -0.17121668 0.028423136
0.36281204 0.21597031 -0.14791793 -0.13197471 -0.33482763 0.30825466 0.32648268 -0.18887515
0.3075941 0.20897317 -0.07713462 -0.3410357 -0.15692928 -0.07482766 0.10730133 0.023403386
0.36804333 -0.004391288 0.18277551 0.2316479 -0.27655485 -0.07456359 0.22952956 -0.13973032
-0.14522642 -0.42337975 -0.2070074 0.05325408 -0.15462321 -0.23790286 -0.27666026 -0.27089348
-0.30914956 -0.005703845 0.16024348 -0.031744134 0.3508876 -0.07036475 -0.013770691 -0.34709415
0.26871854 0.24724096 -0.3033462 -0.10039909 0.06494072 -0.3154754 0.017566234 -0.1671413
0.24610284 0.23093729 0.16457869 -0.058734678 0.27377012 -0.1565729 -0.14862469 0.16867717
-0.31336403 -0.2888314 0.35965243 0.01541671 0.23017755 -0.023567459 -0.26166525 0.3176034
00000000: 9786 783e f4b6 a4be 8ff2 52be ec51 cb3e
00000010: a174 10be 06c4 54be 74a9 f03d 0c8f bfbd
00000020: 9c46 c83e 2dd2 b13e 0ab5 49bd 2835 b53c
00000030: e160 7fbe 59d8 64be 0a3b 94be 1a4e ab3e
00000040: e69d cbbe ecb6 323d bc1d 463e 5186 8abd
00000050: 6115 953e 148e 14be 0b06 2a3d b4f5 b93d
00000060: e348 c33e 4940 a8be 9398 893d f961 8ebd
00000070: 6a99 8bbe 6615 df3e ffc2 663e 0264 04be
00000080: f238 26be ee76 2dbe 5f1e 933e b4e3 25be
00000090: 469d 0fbe b254 a1be 7d77 b43c ba63 9c3e
000000a0: d619 c4bd e239 8e3e 0257 59be 7757 943e
000000b0: 7cb9 4a3e 5d7c a63e 227e 9c3e b4c1 943d
000000c0: b566 283e ad0f 70bd 98fd 573e e46e 91be
000000d0: caa6 aabd 0ae6 a33e 4f7b 673e 7c55 79be
000000e0: 4ea4 a83e 54e7 babe 9691 b1be ebb0 9a3e
000000f0: 582e bfbd 9c6a 3c3e 6d53 2fbe a3d7 e83c
00000100: 80c2 b93e 5227 5d3e cc77 17be 6124 07be
00000110: 876e abbe 8ed3 9d3e bd28 a73e 7d68 41be
00000120: f97c 9d3e 10fd 553e c1f8 9dbd 3b9c aebe
00000130: 12b2 20be 3f3f 99bd cdc0 db3d 75b8 bf3c
00000140: 2d70 bc3e cbe4 8fbb 8129 3b3e 1b35 6d3e
00000150: 9998 8dbe ccb4 98bd cc09 6b3e 7715 0fbe
00000160: 3cb6 14be 3bc5 d8be bff9 53be f320 5a3d
00000170: 8c55 1ebe cf9c 73be 6aa6 8dbe 8db2 8abe
00000180: da48 9ebe 52e7 babb de16 243e 2306 02bd
00000190: 8aa7 b33e 651b 90bd 779e 61bc 53b6 b1be
000001a0: 7a95 893e bc2c 7d3e 3150 9bbe 0a9e cdbd
000001b0: a4ff 843d fe85 a1be 10e7 8f3c 1727 2bbe
000001c0: 6202 7c3e d37a 6c3e 5187 283e c693 70bd
000001d0: 992b 8c3e a554 20be 1231 18be b5b9 2c3e
000001e0: 4071 a0be b6e1 93be 5d24 b83e 5e96 7c3c
000001f0: aab3 6b3e 8b10 c1bc fdf8 85be ea9c a23e

fc3.bias f4 [2]
-0.05254226 -0.02289539
00000000: 8e36 57bd 1d8f bbbc
